xiaotudui/tudui_method1.pth (torch, 9087 bytes, 2 tensors)

weight f4 [64, 3, 3, 3]
00000000: b5eb 23be aec7 e03d b0c7 30be 7556 03be
00000010: 966c 813d 3ae2 eebd 4069 4f3d 495a e7bd
00000020: 372a 403e e014 c2bc 4c23 103d bafa b13d
00000030: 8ef3 d73d 6658 a93d 0ec3 01be b09f 68bd
00000040: f182 f9bd 5852 35bd 8e06 bd3d 5d94 273e
00000050: c60d e43d 9712 17be 5075 0abd fdc5 2ebe
00000060: b51a 97bd 6b24 10be c25f e53d 94c9 3ebe
00000070: a26c c73d 1545 293e 822a 30be 30a8 09bd
00000080: 02e6 fe3d 10da e5bc 4ca5 65bd 80f8 de3b
00000090: 8a3b 9b3d aac0 edbd 55ca 1b3e 0e00 c83d
000000a0: 77fe 0bbe 98f5 623d bce2 09be a997 1abe
000000b0: 228e ce3d 1554 9ebd 5a34 c83d e229 aabd
000000c0: 72fb 8a3d c66b c63d db90 ccbd 466b 8ebd
000000d0: cdeb 213e 009c 8ebd 50b5 0e3c 60a2 273c
000000e0: c837 3fbd 5ce0 733d b1da 373e b511 0e3e
000000f0: 6525 0ebe 1f5b 253e b98e 173e cc79 86bd
00000100: 6205 f53d 6c6c 453d e227 0abe d645 43be
00000110: 8c5e c7bd 34d4 1b3d 7e19 f03d ce9c 22be
00000120: 24eb 81bd 806f f5bc dac2 913d b681 03be
00000130: de1d eb3d 84dc f7bd 4bf2 04be fba5 293e
00000140: ceb1 8ebd 24bf 20be d145 1b3e 0a5e cf3d
00000150: 20a5 3d3c 30b5 40bd bd54 8dbd c47d 86bd
00000160: b54b 143e 8001 b3bb 5883 f1bc bbe9 0fbe
00000170: aa3d da3d dc55 1b3d 7675 43be 48e8 1ebe
00000180: 707b b2bc 9681 0abe 3426 42be 2dbb 013e
00000190: 46fc f93d d30d 04be f62a bbbd 709d 473c
000001a0: 48cd a4bc d166 3d3e 1333 0e3e e623 db3d
000001b0: c6ca 8e3d 80b1 8fbd 55b3 0cbe 908c 3a3d
000001c0: b0c3 1fbe 80ac 44bb 3df4 1a3e 4b7a 1bbe
000001d0: 48fb a3bd c538 cfbd b8db 08be f290 d03d
000001e0: 3400 6e3d 5f4d 153e f290 a9bd 4712 95bd
000001f0: 08ae 04be 8ac8 fd3d 0c6e aabd e07c 17bd
00000200: 757d c5bd caf3 b1bd 004b 47bc fafd 0fbe
00000210: a0a2 e8bb 4814 8fbd 609c a03b 3218 e33d
00000220: c052 0bbd e0be 303d be2b 953d fa48 d5bd
00000230: 8012 2ebd 5292 00be 1d50 063e 0384 1f3e
00000240: 16de a93d 844d 2fbe 1fb3 3b3e c1ac a9bd
00000250: b2c7 c63d 7fd8 263e 08d7 b0bc 0411 0cbd
00000260: e453 bbbd f803 79bd c342 2dbe d0b1 f33c
00000270: ec51 88bd c885 653d 03ac 273e ccee 3abe
00000280: 7c56 32be b1b9 3e3e 869c d13d 8b40 30be
00000290: 040c 153d df61 253e ae62 a1bd c379 9fbd
000002a0: a7a0 1ebe 6c85 463d 0356 173e 67bb 333e
000002b0: 46e6 803d 2023 1dbe 20d8 41bd c042 553c
000002c0: f057 35bc 46a8 e23d 0e58 24be 6b34 2dbe
000002d0: 6fd2 043e f29c fd3d f7e7 0b3e aa0f 12be
000002e0: 49a1 223e a94e ebbd 8358 d6bd 60c6 5c3d
000002f0: 80cd edba 9d1a 163e a640 af3d 54f8 773d
00000300: b4e7 403d 4868 2bbd 1e7f fe3d a1ef 123e
00000310: 2674 ca3d 2213 cb3d d34b 433e 2104 403e
00000320: 3d5a 44be 39a9 323e 0049 59bd 5488 7ebd
00000330: c4ce 17be 7a41 13be f6b7 9cbd f7c9 233e
00000340: 4470 39be b78c 2cbe b6a3 a93d 10d7 f33c
00000350: 30f7 583c 503e 7abc 80ec d63b 688e a33c
00000360: 9d0c 373e 06c7 b43d 3516 08be c056 3d3c
00000370: 6885 1cbe 558f 313e 2db1 21be bf6f 203e
00000380: ae94 aa3d 46d8 16be f7cc 3c3e 803e f1bc
00000390: a033 13bc 5887 c7bc 8811 0d3d 4e91 e13d
000003a0: e4c6 a7bd 806a 623c 80bb e03c 1c59 4f3d
000003b0: 4cef 4ebd f8af 26be a0fb ab3c e958 273e
000003c0: bc9d 13bd f159 123e fb2b 0f3e e25e e33d
000003d0: 9886 eabc d824 4e3d 0019 1ebb 2c5c 7bbd
000003e0: 0889 a43c 89a4 ccbd 66c4 33be c6b2 9c3d
000003f0: a1e4 1c3e b11d 17be 5a50 d53d 58b1 0abe
-0.16007884 0.10975586 -0.17263675 -0.1282595 0.06319539 -0.11664243 0.050637484 -0.112965174
0.18766104 -0.023691595 0.03518991 0.086904004 0.10544501 0.08268814 -0.12672064 -0.056792915
-0.12183178 -0.044267982 0.09229766 0.1636519 0.111354396 -0.14753185 -0.033803284 -0.17067714
-0.07378141 -0.14076392 0.11199905 -0.18631583 0.09737517 0.16530259 -0.17203715 -0.03360766
0.12446214 -0.028058082 -0.056065843 0.006804526 0.075797155 -0.116090134 0.15213902 0.097656354
-0.1367129 0.055409998 -0.13465399 -0.15096916 0.100857034 -0.07730881 0.0977561 -0.0830877
0.06786241 0.09688525 -0.099885665 -0.069540545 0.15812607 -0.069633484 0.00871022 0.010231584
-0.046684057 0.059540138 0.17954518 0.13873942 -0.13881452 0.16148041 0.14800538 -0.065662
0.11963917 0.048199102 -0.13491777 -0.19069609 -0.0973483 0.03804417 0.11723612 -0.15880129
-0.06343678 -0.029960394 0.07117243 -0.1284245 0.11480306 -0.12102607 -0.12983052 0.16567223
-0.06967507 -0.15697914 0.15163352 0.101253584 0.011575013 -0.047047794 -0.06900928 -0.06566957
0.14482005 -0.0054628253 -0.029481575 -0.14054005 0.10656293 0.03792368 -0.19087777 -0.15518296
-0.021787375 -0.13525996 -0.18959886 0.12669058 0.122063205 -0.12895899 -0.091390535 0.012183532
-0.020117417 0.18496253 0.13886671 0.107002065 0.0697227 -0.07016277 -0.13740285 0.045544207
-0.15601993 -0.0030010045 0.15132232 -0.1518337 -0.080069125 -0.1011825 -0.13365066 0.10183896
0.058105662 0.14580296 -0.08279599 -0.07278877 -0.12957013 0.123917654 -0.08321771 -0.036984324
-0.0964307 -0.08689077 -0.0121638775 -0.14061728 -0.0070994645 -0.0698629 0.004901454 0.11088599
-0.034014463 0.043150783 0.07283734 -0.1041431 -0.04249811 -0.12555817 0.13116498 0.15577702
0.08294313 -0.17119414 0.18330048 -0.08284903 0.097060576 0.16293524 -0.02158691 -0.034195915
-0.0914686 -0.0607948 -0.16919999 0.029747874 -0.0665625 0.056035787 0.16374211 -0.18255156
-0.17415804 0.18625523 0.102349326 -0.17212121 0.036388412 0.16150616 -0.0788015 -0.07786896
-0.15490972 0.048467085 0.14778905 0.17551957 0.06293921 -0.1534543 -0.047325253 0.013016403
-0.011068329 0.11067252 -0.16049215 -0.16914527 0.12970899 0.123834506 0.13662706 -0.14263788
0.15881838 -0.114896126 -0.10466101 0.053900123 -0.0018142909 0.1465859 0.085572526 0.06053956
0.04709597 -0.041847497 0.124265894 0.14349224 0.09885435 0.09915759 0.19071893 0.18751575
-0.19175048 0.17447366 -0.053048134 -0.06214173 -0.14824969 -0.14380446 -0.07652275 0.15995012
-0.18109232 -0.16850553 0.082831785 0.029765636 0.013242528 -0.0152736455 0.0065589547 0.019965366
0.17875905 0.08827023 -0.13289721 0.011556327 -0.15285265 0.17339833 -0.15790243 0.15667628
0.0832914 -0.1473094 0.18437563 -0.029448748 -0.008984476 -0.02435653 0.034440547 0.11014043
-0.08192232 0.013819337 0.027433157 0.05062209 -0.05052118 -0.16278064 0.020994008 0.1634251
-0.0360391 0.14292122 0.13981621 0.11102082 -0.028628632 0.050328106 -0.0024123788 -0.0613672
0.020084873 -0.0999232 -0.17555389 0.07651286 0.1532159 -0.1475742 0.104157165 -0.13544214

bias f4 [64]
00000000: 1a98 d73d 13de dfbd b55d 063e 2c97 323d
00000010: 403b 623b f153 003e 1b2e 3cbe 85be 163e
00000020: 25e5 00be 64b2 143d f889 21bd 5d8f 073e
00000030: a9e2 2a3e fd38 2a3e 2f64 033e 2c17 20be
00000040: 31ff 23be 7a99 b23d 8c2e 23bd 2259 a03d
00000050: af4c 44be 3f55 233e b077 bfbc 2070 e3bc
00000060: 602c c93c 8f27 253e 02c8 c93d eb8e babd
00000070: bc7a 01bd 305c 04bd 246d e6bd 085c 34be
00000080: 968c 853d 7a44 bfbd 7b04 05be 8583 04be
00000090: 822b 32be 55b4 333e c0db 2bbb 4067 59bd
000000a0: 84da 27bd 883b 40bd ef89 00be 2d3a a9bd
000000b0: 9c54 e5bd dead d43d 785e 05be 5ed6 aa3d
000000c0: 2730 123e 5d1e 313e f659 04be 892d 203e
000000d0: 0631 a23d 881a e2bc 62b0 0fbe 507f c7bc
000000e0: 09d5 033e 28da 63bd 35f0 ebbd 3600 b7bd
000000f0: 02c7 ec3d 1b77 33be 0e75 f73d 27a9 08be
0.10527058 -0.10931029 0.13121684 0.0436012 0.003452018 0.12532021 -0.18376963 0.14721115
-0.12587412 0.03630294 -0.039438218 0.13238283 0.16688026 0.16623302 0.12831186 -0.1563384
-0.16015317 0.087206796 -0.039839312 0.07829501 -0.19169877 0.15950488 -0.023372501 -0.027763426
0.024557292 0.16128372 0.098526016 -0.09109291 -0.03161119 -0.03231448 -0.11251286 -0.17613232
0.06520955 -0.09339233 -0.1298999 -0.12940796 -0.1739941 0.1754926 -0.002622351 -0.053076982
-0.040979877 -0.046931773 -0.12552617 -0.08263049 -0.111977786 0.10384725 -0.13024318 0.083416685
0.14276181 0.17296739 -0.12924942 0.1564237 0.07919507 -0.027600542 -0.14032128 -0.0243527
0.12874235 -0.055627972 -0.11520425 -0.08935587 0.11561395 -0.17525904 0.12082873 -0.13345776
