xiaotudui/tudui_30.pth (torch, 588691 bytes, 10 tensors)

weight f4 [32, 3, 5, 5]
0.057989035 0.0639254 -0.06691302 0.17761147 0.1411357 -0.107934095 -0.055047203 -0.04229687
-0.050728496 0.013530219 -0.11142627 0.080910094 0.031808063 0.03750886 -0.075094536 0.10029997
-0.14433032 -0.084376365 -0.079326175 -0.07971806 -0.05965833 -0.08239294 -0.15127462 -0.23755132
-0.043533646 0.1538247 0.02072324 -0.037833944 0.056116585 0.16041565 0.0892211 0.117478676
-0.03773911 0.045595627 0.0042311233 0.100374706 0.08767575 0.111936904 0.031944595 -0.0037336529
0.008452974 -0.13995822 0.05437063 -0.05995426 -0.102211684 -0.10274908 -0.18730494 -0.2456857
-0.17233187 -0.031407144 0.054085635 -0.022227392 -0.026810283 0.15313466 0.08480189 -0.1036502
0.17735259 0.044011693 0.12850249 0.1590856 -0.000722364 0.19251673 0.21562569 0.18621902
-0.039391804 -0.021997537 -0.01899608 -0.0048768586 0.09441788 -0.012696696 -0.03462736 -0.057276517
-0.18720667 -0.017481195 -0.04746315 0.09116936 0.07690499 -0.01553208 0.08342717 -0.010540636
0.103457645 0.064138226 0.010909191 0.025925748 -0.119324185 0.13912654 0.10946425 -0.12947688
-0.1732556 0.016632283 0.020172011 -0.10284262 -0.15878801 0.05736896 0.18274137 0.10667208
-0.13340023 -0.12004809 0.019694306 -0.0744053 -0.092215836 -0.075099684 -0.022504164 -0.019700872
0.026529502 -0.16032785 0.048978392 0.10734767 0.015074061 -0.17279781 -0.08028729 -0.016186798
-0.04514611 -0.08075761 -0.119042195 -0.092640914 -0.2223618 -0.2903572 -0.17194928 -0.099543326
-0.14662224 -0.023627713 -0.1650666 -0.13987277 -0.06905687 0.027486643 0.16007368 0.15238509
0.11534296 0.059285965 0.012226877 0.08319773 0.23938194 0.12775262 0.14124681 0.13469289
0.02958161 0.14340286 -0.004074804 0.07168901 0.08120318 0.06712228 0.08267141 0.17036803
0.20465338 -0.022066992 -0.020783642 0.1198601 0.053433154 -0.022171466 -0.103677146 -0.14681074
-0.17504163 -0.073503554 0.054862753 -0.115901046 -0.07534822 0.052690104 -0.11643365 -0.12727872
0.038651194 0.10661919 -0.07753103 0.039579608 -0.15372333 -0.120088026 0.054354835 0.06271303
0.043598 -0.04505634 -0.17402552 -0.15048909 -0.091678575 -0.05848752 0.0072860643 -0.04200529
-0.11004142 -0.20500119 0.055212528 -0.064244196 -0.006042161 0.0036944363 0.07576766 0.03964569
0.050510358 0.19639453 0.26731867 0.16874054 0.03153648 -0.08325514 -0.1167699 0.17955038
0.13427679 0.038233534 0.043320823 0.05208099 -0.10046446 -0.030172013 0.05711489 0.17259724
-0.055302564 -0.02884831 -0.14412168 -0.02835114 -0.01053977 0.1186901 -0.07636173 0.1279981
-0.08062374 0.045450177 0.2127919 0.15198037 0.048856545 -0.0045989323 0.04602879 -0.053675484
0.11377332 -0.019329896 -0.047900766 -0.011480557 -0.03297933 -0.14056486 0.09877163 -0.020919394
0.024578482 -0.112164855 0.021668345 0.07515286 0.09120285 -0.010772879 -0.053293984 -0.072570324
0.05293904 -0.060791004 -0.07925539 -0.15833814 -0.011612678 0.27067205 0.040074963 -0.05278833
-0.19265284 0.22886118 0.08812527 -0.21496584 -0.092617035 -0.054294873 0.104517385 0.0062630386
-0.21382244 -0.012972595 -0.12201964 -0.032095063 0.07158042 0.0018579534 -0.068921 -0.024376228
00000000: e985 6d3d 52eb 823d b209 89bd c8df 353e
00000010: e085 103e 8d0c ddbd 2d79 61bd 7c3f 2dbd
00000020: afc8 4fbd daad 5d3c 7533 e4bd 31b4 a53d
00000030: 2c49 023d e4a2 193d 2acb 99bd 126a cd3d
00000040: 54cb 13be 84cd acbd c375 a2bd 3943 a3bd
00000050: 4b5c 74bd a1bd a8bd bce7 1abe a740 73be
00000060: 5650 32bd 3984 1d3e c9c3 a93c c4f7 1abd
00000070: 81da 653d 0044 243e 8db9 b63d a998 f03d
00000080: 5394 1abd 7bc2 3a3d 3ca5 8a3b 4191 cd3d
00000090: 588f b33d 2d3f e53d 56d8 023d 4db0 74bb
000000a0: 587e 0a3c 3551 0fbe bdb3 5e3d 9992 75bd
000000b0: 5c54 d1bd 1c6e d2bd decc 3fbe 0895 7bbe
000000c0: c477 30be c7a4 00bd e688 5d3d 3816 b6bc
000000d0: 3da1 dbbc 55cf 1c3e 9dac ad3d 8e46 d4bd
000000e0: eb9b 353e 9b45 343d 2896 033e 56e7 223e
000000f0: 075d 3dba 1b23 453e fbcc 5c3e 33b0 3e3e
00000100: 4d59 21bd 2e34 b4bc ab9d 9bbc 0ece 9fbb
00000110: 295e c13d ce05 50bc 6bd5 0dbd c89a 6abd
00000120: 1bb3 3fbe b934 8fbc b868 42bd 00b7 ba3d
00000130: 5d80 9d3d 447a 7ebc dddb aa3d a2b2 2cbc
00000140: 9ae1 d33d e75a 833d 77bc 323c 3c62 d43c
00000150: 3d60 f4bd 3077 0e3e cb2e e03d 9695 04be
00000160: ea69 31be 6d40 883c c63f a53c 279f d2bd
00000170: 5399 22be b7fb 6a3d 8e20 3b3e e476 da3d
00000180: 129a 08be c6db f5bd f455 a13c ce61 98bd
00000190: a8db bcbd ddcd 99bd a75a b8bc b963 a1bc
000001a0: 6654 d93c fc2c 24be 919d 483d 18d9 db3d
000001b0: 32f9 763c e9f1 30be aa6d a4bd 2d9a 84bc
000001c0: 21eb 38bd 3f64 a5bd 65cc f3bd 85ba bdbd
000001d0: d0b2 63be b3a9 94be 7913 30be 5fdd cbbd
000001e0: 2424 16be e88e c1bc 3807 29be cf3a 0fbe
000001f0: b06d 8dbd ab2b e13c 5bea 233e d60a 1c3e
00000200: ee38 ec3d d7d5 723d 3d53 483c 9263 aa3d
00000210: 8a20 753e 95d1 023e 01a3 103e efec 093e
00000220: 2255 f23c 33d8 123e ef85 85bb b0d1 923d
00000230: da4d a63d 6877 893d a14f a93d f574 2e3e
00000240: a890 513e d6c5 b4bc 7542 aabc 3679 f53d
00000250: b9dc 5a3d efa0 b5bc af54 d4bd 8e55 16be
00000260: 1d3e 33be 0889 96bd c4b7 603d 875d edbd
00000270: 2b50 9abd 94d1 573d c474 eebd 5a55 02be
00000280: b750 1e3d 295b da3d 97c8 9ebd 3a1e 223d
00000290: a669 1dbe b6f0 f5bd 2da3 5e3d b06f 803d
000002a0: d193 323d ff8c 38bd bf33 32be d019 1abe
000002b0: fac1 bbbd 9c90 6fbd f0bf ee3b bd0d 2cbd
000002c0: 655d e1bd d5eb 51be 8826 623d 7692 83bd
000002d0: 52fd c5bb 5b1e 723b 132c 9b3d 8563 223d
000002e0: f3e3 4e3d a61b 493e fedd 883e 52ca 2c3e
000002f0: 652c 013d ac81 aabd 0f25 efbd 0edc 373e
00000300: db7f 093e c49a 1c3d 2d71 313d e052 553d
00000310: 50c0 cdbd 4c2b f7bc 4ef1 693d 55bd 303e
00000320: f184 62bd 4a53 ecbc a294 13be a640 e8bc
00000330: 00af 2cbc cc13 f33d 8a63 9cbd ef11 033e
00000340: 0f1e a5bd f729 3a3d 1fe6 593e bea0 1b3e
00000350: cd1d 483d a4b2 96bb af88 3c3d d3da 5bbd
00000360: fd01 e93d bb59 9ebc 9833 44bd f218 3cbc
00000370: 5515 07bd 3cf0 0fbe c848 ca3d 265f abbc
00000380: d058 c93c b0b6 e5bd d081 b13c bee9 993d
00000390: 8fc8 ba3d bb80 30bc cb4a 5abd c09f 94bd
000003a0: 9bd6 583d fdff 78bd a650 a2bd 6523 22be
000003b0: 1a43 3ebc 8795 8a3e a525 243d 9338 58bd
000003c0: c946 45be 965a 6a3e 067b b43d 0120 5cbe
000003d0: 00ae bdbd 4d64 5ebd 360d d63d 2d3a cd3b
000003e0: 45f4 5abe 028b 54bc 6fe5 f9bd 1d76 03bd
000003f0: c198 923d 9286 f33a 7426 8dbd a8b0 c7bc

bias f4 [32]
-0.18246903 -0.21243313 0.059400238 0.012357425 -0.22193006 0.16217528 -0.11791795 -0.06824009
-0.028673068 -0.25551063 0.145569 0.09134324 0.115578905 -0.11751156 -0.09225388 0.111619934
-0.28192604 0.1070683 0.013106799 0.115287624 0.03074122 -0.071773514 -0.15493034 -0.13601267
-0.4760816 0.10189595 -0.0043364814 0.23772857 -0.1766802 -0.34236106 0.13759977 -0.021311847
00000000: 29d9 3abe 1288 59be aa4d 733d cc76 4a3c
00000010: a241 63be 4711 263e f77e f1bd 76c1 8bbd
00000020: c8e3 eabc 4ad2 82be 0a10 153e 2a12 bb3d
00000030: a2b4 ec3d e7a9 f0bd 9aef bcbd fe98 e43d
00000040: 9c58 90be a046 db3d e6bd 563c eb1b ec3d
00000050: 03d5 fb3c fefd 92bd 0fa6 1ebe e846 0bbe
00000060: f8c0 f3be d3ae d03d 0b19 8ebb 1e6f 733e
00000070: a8eb 34be f349 afbe f4e6 0c3e 2f96 aebc

weight f4 [32, 32, 5, 5]
0.054079838 -0.031439714 0.047260266 -0.018308612 -0.0108416155 -0.0519863 0.060568687 0.034724094
-0.020504188 -0.05603617 0.024803685 0.065595426 -0.01090646 0.0065986505 -0.018921388 0.049413983
-0.039035965 -0.008870692 -0.019066205 0.02545187 0.015583282 -0.0041077356 0.04914588 0.030834164
-0.015645558 -0.009299747 0.056718387 0.049103435 0.077851415 0.01639779 -0.00827613 0.04338798
0.1013735 0.06207392 -0.07006663 0.0008608079 0.062409587 0.09318396 -0.04288354 0.025925867
0.038139462 0.047763377 -0.031987693 0.008178147 0.022588234 0.05374542 0.02652248 0.090049975
0.03156072 -0.025735622 0.02895805 -0.011400815 0.031844236 0.007471291 -0.014696596 -0.059282947
-0.006606096 -0.005986729 0.012195412 0.03150346 0.014439995 -0.04333149 -0.03603016 -0.009320666
0.014144698 0.01699302 -0.04337756 -0.012632157 0.023099164 -0.0683136 -0.018940944 0.022586014
-0.008876337 -0.017391475 -0.019888677 0.014756951 0.0110164 0.059292004 0.033873454 0.02724752
0.043423537 0.0963754 0.07259468 -0.0054496382 0.07401494 0.025841633 0.09121061 -0.043755163
0.09198095 0.08706076 0.02812996 0.017540382 0.03427596 0.083615296 -0.03967383 -0.031177692
0.0050397734 0.023405125 0.030674756 0.024937296 -0.040849216 -0.03551284 -0.046407763 0.03223535
-0.028841963 0.0005605999 -0.013191069 -0.019558348 -0.03632464 -0.035649948 -0.00928235 -0.06301184
-0.040223945 -0.020309446 0.022421358 -0.02883593 0.039363466 -0.036607176 -0.017707828 -0.0141689
0.012209941 0.007712832 -0.038369402 0.012210939 0.0045915046 0.022676378 0.0054029995 0.00400801
0.07024255 -0.022674972 -0.049692027 0.009645543 0.034894954 0.0372038 -0.06987575 0.011534525
0.035930432 -0.012910401 -0.058833506 -0.026861422 0.066577144 0.023314279 -0.08064025 -0.023596248
0.007922886 0.05626229 0.021765182 -0.042881224 0.06597724 0.08283064 0.0055674855 -0.0040848404
-0.06038728 -0.10484346 -0.024518238 0.008045622 -0.042867616 -0.09448545 -0.04430621 0.017577777
-0.020519922 -0.047838073 -0.03676777 0.0025852583 -0.053000603 -0.037798543 -0.03419738 0.073780105
-0.04280245 -0.025024883 -0.026482875 0.010465586 -0.0259276 -0.015469539 0.03892178 0.030254832
0.003308824 0.020955399 0.112766795 -0.040555414 -0.046590887 0.060659897 0.058845893 -0.011031787
-0.006361293 -0.013423006 0.09041221 -0.04817656 -0.012524337 0.07340254 0.016709542 -0.046608135
-0.07799476 0.07766169 -0.009535075 -0.05933121 -0.014913091 0.0178575 0.060190998 -0.002928407
-0.08755013 0.0123717915 -0.022531658 0.003984179 0.029508779 0.031110324 0.030519448 -0.046885807
0.08894367 0.12257141 -0.0018878472 -0.07085147 0.06930178 0.14218009 -0.021339504 -0.06014169
0.050710052 0.09411581 -0.038474206 -0.019942367 -0.028468503 0.05109129 0.0068648495 -0.022944987
0.049758933 0.015809307 0.02669884 0.008102343 -0.056535393 -0.04109217 0.041408695 -0.0034131382
-0.015669497 -0.0057352064 -0.027421866 -0.0125052035 0.02625408 0.0931778 0.027136283 -0.063266814
0.042223502 0.08735629 0.007919392 -0.05810513 -0.026390301 0.059697002 -0.020018097 -0.021789378
-0.022067683 0.013252979 0.017434368 -0.034056477 -0.025672184 0.080174945 -0.042777475 0.01599243
00000000: d282 5d3d eec6 00bd fb93 413d f1fb 95bc
00000010: 08a1 31bc 96ef 54bd df16 783d da3a 0e3d
00000020: 66f8 a7bc 2f86 65bd 1931 cb3c e556 863d
00000030: 02b1 32bc 7e39 d83b 0701 9bbc 5166 4a3d
00000040: 2de4 1fbd 6156 11bc bb30 9cbc 7180 d03c
00000050: 0651 7f3c 2f9a 86bb 314d 493d ee97 fc3c
00000060: 1d2b 80bc f75d 18bc 8a51 683d af20 493d
00000070: 9070 9f3d a854 863c 9b98 07bc 98b7 313d
00000080: e99c cf3d 3941 7e3d 187f 8fbd d7a7 613a
00000090: 32a1 7f3d 3bd7 be3d a7a6 2fbd 7c62 d43c
000000a0: 2038 1c3d 88a3 433d 8705 03bd a2fd 053c
000000b0: f60a b93c 2824 5c3d ac45 d93c 1f6c b83d
000000c0: d045 013d 83d3 d2bc 6f39 ed3c 7cca 3abc
000000d0: 1a6f 023d bbd1 f43b fec9 70bc add2 72bd
000000e0: f377 d8bb 532c c4bb 44cf 473c c609 013d
000000f0: bb95 6c3c 5c7c 31bd 5c94 13bd b5b5 18bc
00000100: 2abf 673c f234 8b3c abac 31bd 1bf7 4ebc
00000110: 753a bd3c 00e8 8bbd 0a2a 9bbc 4e06 b93c
00000120: 0e6e 11bc 9178 8ebc 94ed a2bc 23c7 713c
00000130: 217e 343c 2cdc 723d e4be 0a3d 3136 df3c
00000140: e1dc 313d 7760 c53d 85ac 943d e192 b2bb
00000150: 2595 973d d5b1 d33c a1cc ba3d 9d38 33bd
00000160: 8260 bc3d e94c b23d cd70 e63c d9b0 8f3c
00000170: f364 0c3d 7f3e ab3d 0781 22bd 5c68 ffbc
00000180: af24 a53b 1bbc bf3c a049 fb3c 4d49 cc3c
00000190: 8251 27bd e975 11bd 1116 3ebd 3709 043d
000001a0: fb45 ecbc 39f5 123a 5a1f 58bc d438 a0bc
000001b0: 25c9 14bd ae05 12bd ff14 18bc 5a0c 81bd
000001c0: ddc1 24bd ff5f a6bc ffac b73c 5439 ecbc
000001d0: 963b 213d 68f1 15bd 0210 91bc ad24 68bc
000001e0: 340c 483c edbb fc3b 3c29 1dbd 6410 483c
000001f0: 5574 963b d0c3 b93c a50b b13b a055 833b
00000200: 53db 8f3d ddc0 b9bc de89 4bbd 5708 1e3c
00000210: 03ee 0e3d 0363 183d 041b 8fbd 4efb 3c3c
00000220: ca2b 133d 2686 53bc 67fb 70bd 7c0c dcbc
00000230: 9959 883d 96fd be3c b726 a5bd eb4c c1bc
00000240: fece 013c 4973 663d e54c b23c 39a4 2fbd
00000250: 131f 873d 1ca3 a93d 746f b63b 20da 85bb
00000260: a758 77bd 2bb8 d6bd 79da c8bc c9d1 033c
00000270: f495 2fbd 9681 c1bd 6e7a 35bd 45ff 8f3c
00000280: 6519 a8bc dbf1 43bd cd99 16bd 706d 293b
00000290: 2917 59bd a5d2 1abd 8d12 0cbd 061a 973d
000002a0: 9f51 2fbd fc00 cdbc 9df2 d8bc d977 2b3c
000002b0: 1e66 d4bc f373 7dbc 726c 1f3d fbd8 f73c
000002c0: dbd8 583b a8aa ab3c 47f2 e63d 6f1d 26bd
000002d0: 16d6 3ebd 8376 783d 6408 713d abbe 34bc
000002e0: 6572 d0bb 2bec 5bbc 092a b93d c954 45bd
000002f0: e032 4dbc 1254 963d 73e2 883c 2ce8 3ebd
00000300: b7bb 9fbd 180d 9f3d 0139 1cbc 4805 73bd
00000310: 0a56 74bc e449 923c d68a 763d 84ea 3fbb
00000320: 7c4d b3bd 0eb3 4a3c 5094 b8bc b78d 823b
00000330: 65bc f13c 14db fe3c ec03 fa3c 550b 40bd
00000340: 1928 b63d b806 fb3d a471 f7ba 931a 91bd
00000350: 17ee 8d3d a897 113e 2fd0 aebc 2257 76bd
00000360: 58b5 4f3d cabf c03d 2197 1dbd 2d5e a3bc
00000370: c736 e9bc 1a45 513d 88f2 e03b 20f7 bbbc
00000380: 06d0 4b3d 8582 813c 87b7 da3c b1bf 043c
00000390: a891 67bd 4350 28bd 2a9c 293d f5ae 5fbb
000003a0: 515d 80bc 66ee bbbb d2a3 e0bc a0e2 4cbc
000003b0: cc12 d73c 01d4 be3d e94c de3c 0892 81bd
000003c0: 8df2 2c3d dbe7 b23d 56c0 013c a5ff 6dbd
000003d0: 7930 d8bc d884 743d fefc a3bc a37f b2bc
000003e0: 49c7 b4bc 0623 593c 85d2 8e3c ce7e 0bbd
000003f0: 794e d2bc c332 a43d 6f37 2fbd 8e02 833c

bias f4 [32]
-0.20450562 -0.09995171 -0.17513531 -0.091832586 -0.09721146 -0.19061027 -0.016766148 -0.08007736
-0.010497722 -0.07835268 -0.071908936 -0.17024016 0.02171602 -0.19380441 -0.122576386 0.0061068563
-0.16610247 0.051385667 -0.11147655 -0.05732532 -0.08683633 -0.10978048 0.040636506 -0.20901287
-0.056177665 0.031466704 -0.0757249 -0.13193569 -0.06248827 -0.11641234 -0.10401277 -0.03230989
00000000: ec69 51be 7bb3 ccbd ac56 33be b912 bcbd
00000010: cd16 c7bd 572f 43be 2959 89bc 99ff a3bd
00000020: a3fe 2bbc 5f77 a0bd fe44 93bd 7053 2ebe
00000030: cbe5 b13c aa74 46be 5409 fbbd 061c c83b
00000040: c416 2abe c779 523d d14d e4bd f4cd 6abd
00000050: 3fd7 b1bd 97d4 e0bd 7772 263d 7807 56be
00000060: 8d1a 66bd 3be3 003d a815 9bbd 261a 07be
00000070: b3f3 7fbd 9869 eebd a604 d5bd 6057 04bd

weight f4 [64, 32, 5, 5]
-0.016025983 -0.0038059852 -0.06984236 -0.057905946 -0.049759723 0.081095316 -0.028704278 -0.08994357
-0.013103415 -0.03886359 0.050922368 0.031145602 0.00980236 -0.07541002 -0.026800245 -0.057600956
-0.044147745 -0.011803952 -0.020726498 0.0014549695 -0.015037092 0.011926956 0.0494829 -0.0072833863
0.009482912 -0.03242136 0.0493622 0.0060511474 0.0053945906 0.010975899 0.04622976 0.107766435
0.010841845 0.031066922 0.027022533 0.0072602625 0.057308953 -0.05605189 -0.021223912 -0.042487565
-0.0076408037 0.063778155 -0.0053326297 -0.029675448 -0.0512361 0.007314621 -0.01692293 -0.008845503
0.014716202 -0.019982567 -0.027732622 0.054534867 -0.00482629 -0.006736107 -0.012544573 0.04329758
0.005244131 0.013799976 0.018928442 0.04315907 -0.02774423 -0.07028642 -0.039267402 -0.005403416
-0.023276363 0.037850693 -0.07053991 -0.07404846 0.0010711586 -0.010852717 0.03914921 0.027356034
0.021336373 0.028395923 -0.004305637 0.02145777 0.009182843 0.06120195 0.08400705 0.04288686
-0.06816567 0.01587516 0.0324104 -0.0029121044 0.03452701 0.0012523318 -0.029320955 -0.015214278
0.023563461 -0.028538588 -0.008528799 -0.025736518 0.005523235 -0.016808273 -0.021174502 -0.020219024
-0.019779548 -0.007518293 -0.011380562 -0.026291704 0.013902179 -0.06727924 -0.011068732 -0.01847196
0.042832855 0.009371836 -0.02505296 0.016762037 -0.022683982 -0.011627265 0.03594235 -0.023450669
0.0054334984 -0.0063927476 0.028231794 -0.024829425 0.0086298715 0.03060753 -0.022271873 0.04068063
-0.06571677 -0.035114333 -0.04795177 0.009955066 0.00931441 -0.058671877 -0.03616682 -0.028230397
0.0014009004 0.03135446 0.059482872 0.06075068 -0.0183028 -0.012066583 0.05018562 -0.0103632305
0.01939801 -0.008082367 0.025948519 0.01821272 -0.03990233 -0.046608537 -0.04150126 -0.023857553
-0.007983864 0.061496995 -0.0017900527 0.014940128 -0.04180739 0.0138995005 -0.004073355 0.030805836
0.023056999 -0.017991288 -0.046917137 0.026301155 0.03840803 0.010172 0.0029015364 0.008132469
0.038037155 -0.018802315 0.021309104 0.03094255 -0.0025093553 0.01190947 -0.07973852 -0.03022939
0.028416088 -0.005447877 0.017427433 -0.06496349 0.05654886 0.051602755 0.00050828274 0.004620704
-0.030153912 -0.004097962 0.0047082463 -0.010390396 0.0009347604 0.021120723 -0.0008317403 -0.023901738
-0.02490005 0.044905953 0.007011081 -0.012872281 -0.032226063 0.015629092 0.019168908 -0.020193258
-0.012785709 -0.026779858 0.024012199 -0.006773202 -0.03578759 0.015489656 0.04030162 0.005375208
-0.028490743 -0.0405288 -0.017403286 0.024133505 -0.010355618 0.016577536 -0.023380095 -0.047090627
-0.028126834 -0.014476748 -6.216348e-05 -0.029473709 -0.034506723 -0.0135034695 0.007374708 0.008095697
-0.015156153 0.013740938 0.07537325 0.042933825 0.011921669 -0.009105551 -0.034433424 0.028726622
-0.0042498866 -0.071658134 -0.014275127 -0.049005322 0.063884124 0.05080744 -0.0035292043 0.065570086
0.014867961 0.09024961 0.013063905 -0.0045408513 -0.04093154 -0.00602207 0.009732119 -0.018815858
-0.028454503 -0.041912418 -0.061084162 -0.033935327 -0.01321693 -0.0033048687 -0.064722136 -0.021049514
0.053386517 0.027253289 0.00026671 0.06336455 0.066538826 0.0051745484 -0.016480658 -0.0014196455
00000000: ec48 83bc d66d 79bb 8309 8fbd c92e 6dbd
00000010: dad0 4bbd 4d15 a63d 3c25 ebbc 5634 b8bd
00000020: b5af 56bc 6e2f 1fbd f993 503d 1025 ff3c
00000030: 149a 203c 9270 9abd 308c dbbc fbee 6bbd
00000040: 44d4 34bd 5d65 41bc 9eca a9bc adb4 be3a
00000050: 235e 76bc 4769 433c 95ae 4a3d 79a9 eebb
00000060: 375e 1b3c 43cc 04bd 0530 4a3d b448 c63b
00000070: 1bc5 b03b 42d4 333c 6b5b 3d3d a6b4 dc3d
00000080: fea1 313c 0f80 fe3c 5c5e dd3c 7fe7 ed3b
00000090: cbbc 6a3d ab96 65bd c5dd adbc 7107 2ebd
000000a0: b55f fabb 1f9e 823d 57bd aebb ed19 f3bc
000000b0: f2dc 51bd 7daf ef3b f5a1 8abc bbec 10bc
000000c0: 3a1c 713c 7bb2 a3bc 862f e3bc f45f 5f3d
000000d0: db25 9ebb 90ba dcbb c187 4dbc ce58 313d
000000e0: f6d6 ab3b 4b19 623c d20f 9b3c 91c7 303d
000000f0: de47 e3bc 54f2 8fbd dbd6 20bd 240f b1bb
00000100: 12ae bebc 5409 1b3d 3a77 90bd b8a6 97bd
00000110: 1e66 8c3a 98cf 31bc ec5a 203d c319 e03c
00000120: 9ec9 ae3c 919e e83c 4d16 8dbb 35c8 af3c
00000130: a373 163c e5ae 7a3d e30b ac3d 22aa 2f3d
00000140: 719a 8bbd a00c 823c c5c0 043d 01d9 3ebb
00000150: 326c 0d3d 4825 a43a 8032 f0bc 4f45 79bc
00000160: 2908 c13c c2c9 e9bc 60bc 0bbc 64d5 d2bc
00000170: 41fc b43b 81b1 89bc 2676 adbc 5ea2 a5bc
00000180: b808 a2bc 035c f6bb 8975 3abc b361 d7bc
00000190: f7c5 633c b3c9 89bd a059 35bc 8252 97bc
000001a0: 8171 2f3d 548c 193c dd3b cdbc 8a50 893c
000001b0: c2d3 b9bc 4980 3ebc 4938 133d 9e1b c0bc
000001c0: 7d0b b23b 417a d1bb 5d46 e73c 1467 cbbc
000001d0: 4e64 0d3c a5bc fa3c 8173 b6bc bba0 263d
000001e0: 8496 86bd 0cd4 0fbd 1369 44bd 931a 233c
000001f0: 789b 183c ec51 70bd a923 14bd 6f43 e7bc
00000200: 6b9e b73a 896d 003d 50a4 733d b4d5 783d
00000210: c1ef 95bc ebb2 45bc 708f 4d3d 8aca 29bc
00000220: 93e8 9e3c e76b 04bc fd91 d43c d832 953c
00000230: a070 23bd 98e8 3ebd 3afd 29bd ea70 c3bc
00000240: c1ce 02bc 46e4 7b3d 34a0 eaba 70c7 743c
00000250: 3a3e 2bbd bbba 633c c779 85bb 855c fc3c
00000260: 08e2 bc3c 7762 93bc 2f2c 40bd 8575 d73c
00000270: bd51 1d3d 76a8 263c b427 3e3b 0c3e 053c
00000280: d9cc 1b3d 5007 9abc 6e90 ae3c 3b7b fd3c
00000290: ff73 24bb f01f 433c f34d a3bd a0a3 f7bc
000002a0: dbc8 e83c 1b84 b2bb fac3 8e3c 940b 85bd
000002b0: c79f 673d 695d 533d 473e 053a 4669 973b
000002c0: 5605 f7bc 3248 86bb a247 9a3b 7b3c 2abc
000002d0: b50a 753a 5e05 ad3c 2609 5aba 94cd c3bc
000002e0: 31fb cbbc 4eef 373d 36bd e53b 42e6 52bc
000002f0: 7aff 03bd 9508 803c 1d08 9d3c 556c a5bc
00000300: 277b 51bc 6f61 dbbc 3bb5 c43c bdf1 ddbb
00000310: 0296 12bd 53c8 7d3c 5013 253d 8322 b03b
00000320: 6b65 e9bc 8701 26bd 5691 8ebc a1b3 c53c
00000330: 9caa 29bc 9dcd 873c 9d87 bfbc 1ae2 40bd
00000340: 3f6a e6bc e22f 6dbc c45d 82b8 d972 f1bc
00000350: ec56 0dbd a83d 5dbc 89a7 f13b d0a3 043c
00000360: 8351 78bc ac21 613c 4a5d 9a3d 61db 2f3d
00000370: 1b53 433c 732f 15bc 100a 0dbd 1854 eb3c
00000380: a242 8bbb 80c1 92bd 39e2 69bc ceb9 48bd
00000390: aed5 823d 761b 503d 394a 67bb 9c49 863d
000003a0: c098 733c cad4 b83d fd09 563c 6ccb 94bb
000003b0: d5a7 27bd c954 c5bb 7773 1f3c b723 9abc
000003c0: 6b19 e9bc 5bac 2bbd 6333 7abd c5ff 0abd
000003d0: d38b 58bc 7f96 58bb 0a8d 84bd 0870 acbc
000003e0: d2ab 5a3d 4a42 df3c 36d5 8b39 46c5 813d
000003f0: 8245 883d 428f a93b 7202 87bc 6613 baba

bias f4 [64]
-0.071509875 -0.080383234 -0.0052640107 -0.03645716 -0.11276761 -0.085835636 -0.10636021 -0.059162427
-0.042281114 -0.05893369 -0.09328884 -0.094616525 -0.094493 -0.07956337 -0.1008624 -0.014009156
-0.08252354 0.010898358 -0.13694733 -0.04138963 -0.08682315 -0.03136655 -0.05639765 -0.022554642
0.03434588 -0.07073672 -0.031767752 -0.09275133 -0.049901567 -0.13022159 -0.07790273 -0.06878943
-0.023573654 -0.015201513 -0.0599293 -0.0037594114 -0.037455283 -0.09975108 -0.09429113 -0.008611709
-0.019625958 0.009679271 -0.07087597 -0.11830338 0.019420376 0.00033587296 -0.129565 -0.09878631
-0.043641742 -0.032993164 -0.051741235 -0.045250334 -0.12306513 -0.12274745 -0.12303389 -0.12152258
-0.09331418 -0.06394408 -0.08924302 0.007497527 -0.10051183 -0.0031614916 -0.0659638 -0.08511836
00000000: c573 92bd f79f a4bd b97d acbb 1a54 15bd
00000010: b4f2 e6bd 98ca afbd 62d3 d9bd 4d54 72bd
00000020: f62e 2dbd 7464 71bd 380e bfbd 4fc6 c1bd
00000030: 8c85 c1bd 1ff2 a2bd f290 cebd a986 65bc
00000040: 1a02 a9bd 078f 323c ec3b 0cbe 2c88 29bd
00000050: 56d0 b1bd 367a 00bd 3901 67bd 83c4 b8bc
00000060: 44ae 0c3d 6ade 90bd e71e 02bd 69f4 bdbd
00000070: 9665 4cbd cf58 05be 778b 9fbd 79e1 8cbd
00000080: 891d c1bc c40f 79bc 6d78 75bd 7560 76bb
00000090: b66a 19bd 4b4a ccbd b51b c1bd 2018 0dbc
000000a0: 9ec6 a0bc ce95 1e3c 6c27 91bd 0b49 f2bd
000000b0: 7b17 9f3c 1b18 b039 b0ac 04be 7a50 cabd
000000c0: afc1 32bd d723 07bd 9eee 53bd 6a58 39bd
000000d0: 9209 fcbd 0463 fbbd 31f9 fbbd d5e0 f8bd
000000e0: 811b bfbd 1df5 82bd 0bc5 b6bd d1ad f53b
000000f0: 25d9 cdbd 0731 4fbb 0718 87bd 8952 aebd

weight f4 [64, 1024]
-0.018713335 -0.022847896 -0.04188524 -0.014191305 0.00013541734 0.00045691297 -0.0006178399 0.010537243
0.021213168 -0.02490962 -0.015021413 -0.014473199 0.0025240586 0.017375596 0.043709498 0.013062599
-0.020293396 0.0032072254 -0.0069900164 -0.02811243 -0.0007261654 0.024818672 0.029372737 0.0153393475
-0.005366116 0.011531963 0.012747685 0.009708737 -0.010144426 -0.019603144 0.028437851 -0.0286601
0.019335667 -0.0071832724 0.021066038 0.0027847136 -0.032959696 0.010530456 -0.01824191 0.012056843
0.026670279 -0.022375816 0.032842178 -0.033691645 -0.03575736 -0.0015108346 -0.02007007 -0.0028933361
0.0385433 0.033274427 0.005170222 -0.028395418 -0.009773426 -0.029020138 0.0029645262 -0.05684789
-0.0018778985 0.01835021 0.013745147 -0.018412888 -0.013730295 0.01968962 0.03856547 -0.06004
-0.036968578 0.017545559 -0.0011273302 0.0050419075 2.0723839e-05 -0.048789315 0.047866907 -0.01590973
0.016072296 0.0078602 -0.028106432 -0.015290576 0.030586705 0.013437097 -0.0013192521 -0.00058463414
0.00681264 0.03188827 0.027515482 0.026752708 -0.040890727 0.02286358 0.034370285 -0.04448295
-0.012098278 0.024439437 0.014025812 -0.029685503 -0.03208911 0.025223674 -0.0071053067 -0.042958416
-0.01284813 -0.006730272 0.03315694 -0.03525988 -0.027155077 -0.004218853 0.019004628 0.0061596557
-0.009764602 -0.012717688 -0.017272841 0.0537864 -0.009428314 -0.039046522 -0.028865645 0.021411145
0.021343488 -0.031929564 -0.004851656 -0.0125572365 0.0075113922 0.0037231713 -0.047337104 -0.007722779
0.015480701 -0.042476323 -0.0012023329 0.0025037646 -0.015211587 0.037540387 -0.013140623 0.038641512
-0.0024509311 0.040949956 0.03583285 0.057029866 -0.016316177 0.0144109 -0.0012509681 0.024217855
-0.012165418 0.0053566187 0.005061031 0.026677167 0.005921045 0.002939844 -0.023966132 0.0020313535
0.010168133 0.015367223 0.025636358 0.009994516 0.03256937 -0.013792075 0.0142747685 0.021490013
-0.007395002 0.013343377 -0.0011808838 0.024778396 -0.018552836 -0.022845056 -0.02299397 0.037205644
-0.006419308 0.030013409 0.020523911 -0.0014207633 0.03634125 0.02368998 -0.024312666 0.020245569
-0.021450873 -0.012210215 -0.026015721 0.017219556 -0.012517868 0.0031006667 -0.01264032 -0.023787614
-0.0018676928 0.009949822 -0.005535239 -0.019034356 -0.032788705 0.023930943 0.035177615 -0.030919429
0.023644244 0.0049879504 -0.0027669917 -0.025568472 0.016005786 0.028787713 -0.034016263 -0.018531617
-0.035881024 0.0017696621 0.018548215 -0.010567757 0.035601337 -0.0035311936 0.009931179 0.014946579
-0.004333479 0.0033459065 -0.0060240705 -0.03709224 0.014356743 0.0034533623 -0.029354922 0.0083455155
0.023159506 -0.013316356 -0.017683044 0.0011442731 0.014831894 -0.00043105293 -0.018338073 -0.031948354
0.07573051 0.0112855965 0.025156239 0.024362812 0.014557724 0.0010089953 0.012357369 -0.022089954
-0.02511649 -0.027324084 -0.020249844 0.01717739 0.017513413 0.039353583 0.014572689 0.004964345
0.005002941 0.0041767294 0.03669597 0.04613372 -0.03935908 0.024205549 -0.038267475 -0.031301536
0.03507253 0.03601324 0.029496469 -0.013379541 0.015101873 -0.020295411 0.00091195933 -0.03418369
0.051990677 -0.05472867 -0.061945427 0.026124762 0.0002720229 0.0072436067 -0.029996468 -0.008516658
00000000: b54c 99bc 832b bbbc db8f 2bbd a682 68bc
00000010: d1fe 0d39 d28d ef39 89f6 21ba 67a4 2c3c
00000020: 3dc7 ad3c 420f ccbc 5f1c 76bc ff20 6dbc
00000030: ad6a 253b 4457 8e3c bb08 333d 8304 563c
00000040: 563e a6bc 5030 523b 820c e5bb 0a4c e6bc
00000050: 235c 3eba 8750 cb3c 189f f03c e351 7b3c
00000060: 3ed6 afbb 8ff0 3c3c abdb 503c 6511 1f3c
00000070: ce34 26bc c696 a0bc 7ff6 e83c 96c8 eabc
00000080: d565 9e3c a861 ebbb af92 ac3c be7f 363b
00000090: bf00 07bd ef87 2c3c 0f70 95bc 118a 453c
000000a0: a17b da3c 7d4d b7bc 8585 063d 4000 0abd
000000b0: 4f76 12bd 3207 c6ba fd69 a4bc 209e 3dbb
000000c0: 94df 1d3d c44a 083d f76a a93b 829d e8bc
000000d0: b820 20bc a4bb edbc 7f48 423b 55d9 68bd
000000e0: d123 f6ba 2e53 963c 5333 613c a0d6 96bc
000000f0: 08f5 60bc 204c a13c d4f6 1d3d 81ec 75bd
00000100: 5d6c 17bd b4bb 8f3c edc2 93ba 9636 a53b
00000110: 1bd8 ad37 4ed7 47bd 1710 443d 1f55 82bc
00000120: 0caa 833c 11c8 003c 763f e6bc 5385 7abc
00000130: f890 fa3c 4527 5c3c c1ea acba 2242 19ba
00000140: 913c df3b 469d 023d 2668 e13c 7f28 db3c
00000150: 097d 27bd 674c bb3c dbc7 0c3d c133 36bd
00000160: db37 46bc 3735 c83c 85cc 653c 032f f3bc
00000170: df6f 03bd e1a1 ce3c a2d3 e8bb 2af5 2fbd
00000180: f780 52bc 9d89 dcbb 92cf 073d aa6c 10bd
00000190: 5374 debc 4e3e 8abb 98af 9b3c f0d6 c93b
000001a0: b6fb 1fbc da5d 50bc c67f 8dbc 214f 5c3d
000001b0: 3779 1abc 3fef 1fbd a577 ecbc 6d66 af3c
000001c0: 8ad8 ae3c 93c8 02bd a4fa 9ebb debc 4dbc
000001d0: 2022 f63b 7300 743b 8de4 41bd 5e0f fdbb
000001e0: c4a2 7d3c a7fb 2dbd 9997 9dba 3316 243b
000001f0: 053a 79bc f3c3 193d c54b 57bc 9046 1e3d
00000200: cd9f 20bb 24bb 273d 77c5 123d 2698 693d
00000210: 81a9 85bc b21b 6c3c 86f7 a3ba 8664 c63c
00000220: 7651 47bc 9386 af3b 01d7 a53b 138a da3c
00000230: 5305 c23b 66aa 403b 9f54 c4bc 7520 053b
00000240: 3e98 263c cec6 7b3c 5703 d23c 0ac0 233c
00000250: 7667 053d 28f8 61bc b8e0 693c d30b b03c
00000260: c651 f2bb 2e9e 5a3c e3c7 9aba 10fc ca3c
00000270: 1efc 97bc 8e25 bbbc da5d bcbc f264 183d
00000280: 0f59 d2bb aede f53c c321 a83c e838 baba
00000290: 90da 143d 7d11 c23c 5b2b c7bc 09da a53c
000002a0: beb9 afbc 5b0d 48bc ec1e d5bc 0710 8d3c
000002b0: be17 4dbc 8e34 4b3b 5819 4fbc 3ede c2bc
000002c0: 5fcd f4ba 9404 233c f360 b5bb f0ed 9bbc
000002d0: 734d 06bd d30a c43c 6716 103d be4a fdbc
000002e0: 93b1 c13c f671 a33b 6b56 35bb f974 d1bc
000002f0: 911e 833c 36d4 eb3c a354 0bbd 9ecf 97bc
00000300: fbf7 12bd 02f4 e73a 6df2 973c 6324 2dbc
00000310: b5d2 113d 996b 67bb 62b6 223c 7fe2 743c
00000320: dbff 8dbb ff46 5b3b 9165 c5bb 08ee 17bd
00000330: 8b38 6b3c ce51 623b bc79 f0bc a1bb 083c
00000340: 01b9 bd3c d82c 5abc 08dc 90bc 6ffb 953a
00000350: 7901 733c f2fe e1b9 ba39 96bc 47dc 02bd
00000360: 9918 9b3d 39e7 383c 7514 ce3c 8594 c73c
00000370: 8583 6e3c 4440 843a 9076 4a3c fef5 b4bc
00000380: 19c1 cdbc c2d6 dfbc 00e3 a5bc 99b7 8c3c
00000390: 4a78 8f3c 3931 213d 4ac2 6e3c f2ab a23b
000003a0: b6ef a33b f2dc 883b 834e 163d b6f6 3c3d
000003b0: fd36 21bd b74a c63c 5bbe 1cbd 0a36 00bd
000003c0: 37a8 0f3d 9f82 133d 94a2 f13c dd35 5bbc
000003d0: d96d 773c 9042 a6bc 8e10 6f3a 3204 0cbd
000003e0: 2df4 543d 2b2b 60bd 7dba 7dbd 9903 d63c
000003f0: 4c9e 8e39 c75b ed3b 27bb f5bc 7489 0bbc

bias f4 [64]
0.015943443 0.03779035 -0.012722576 -0.049900647 -0.022306463 -0.056952033 0.008348438 0.0015945564
0.005461861 -0.015955806 0.0030303127 0.008008991 -0.014819293 -0.0043697697 0.04576565 0.04001323
-0.033759486 0.062420595 0.060682137 -0.032893267 0.0042623132 0.009821395 -0.0074726646 -0.0005133366
-0.06049001 -0.02042573 -0.057514723 0.03206524 -0.013272623 0.0002623368 -0.0524038 0.0314252
-0.01861255 -0.029191887 0.021964049 0.052556973 0.004807225 0.013976881 -0.00307446 0.043871235
0.009374631 -0.05130642 0.0031030886 0.042055443 -0.022788936 0.019712836 -0.011070635 0.07133878
0.028244257 -0.06196214 -0.010157054 -0.021811193 -0.006615031 -0.07705429 0.008006586 -0.058505133
-0.06576499 0.008335048 0.0011577422 0.0122646745 0.016878402 0.016862538 -0.006883867 -0.01961317
00000000: d39b 823c 0eca 1a3d 5a72 50bc 9f64 4cbd
00000010: 0bbc b6bc 8946 69bd e3c7 083c 6f00 d13a
00000020: 69f9 b23b c0b5 82bc 3698 463b 2538 033c
00000030: 9fcc 72bc 4930 8fbb c374 3b3d eae4 233d
00000040: 6347 0abd bdac 7f3d d58d 783d 17bb 06bd
00000050: e0aa 8b3b ebe9 203c 41dd f4bb 7091 06ba
00000060: 5fc4 77bd dc53 a7bc 8f94 6bbd d756 033d
00000070: 6a75 59bc 408a 8939 5ea5 56bd b6b7 003d
00000080: 5979 98bc d323 efbc f3ed b33c fb45 573d
00000090: ed85 9d3b 4aff 643c e17c 49bb 53b2 333d
000000a0: 0d98 193c ae26 52bd 305d 4b3b 5442 2c3d
000000b0: ddaf babc d07c a13c 9c61 35bc 111a 923d
000000c0: 8060 e73c 03cc 7dbd c669 26bc 63ad b2bc
000000d0: e7c2 d8bb a4ce 9dbd 0e2e 033c 14a3 6fbd
000000e0: ccaf 86bd ba8f 083c 62bf 973a c6f1 483c
000000f0: 9344 8a3c 4e23 8a3c 1092 e1bb ccab a0bc

weight f4 [10, 64]
-0.13632792 -0.14458357 0.22654991 0.08362589 0.17424724 0.05934626 -0.20394973 0.3200467
-0.1301181 -0.30085903 0.0011332759 0.26609385 -0.024135197 -0.068356775 -0.038493507 -0.050209805
0.02482353 -0.21398547 0.11982261 0.31436786 -0.071126916 -0.20335591 0.26257268 0.063705556
0.16834883 -0.23145331 0.03535929 -0.23659164 -0.060926016 -0.27974448 0.13193767 0.023048248
-0.024712717 0.10653967 0.0008353345 -0.19269337 0.017697638 0.12780465 0.12602393 0.24892563
-0.19312017 0.24481219 0.14437929 0.023672132 -0.1904305 -0.049872767 -0.15940446 -0.24006796
-0.24973346 0.09677679 0.11852932 0.22821422 0.1950886 0.09496156 -0.24268399 0.25569764
0.3030658 0.26836854 0.1539301 0.049250197 -0.26070717 0.0797869 -0.15874298 0.066796005
-0.016393883 -0.07047294 0.03260926 -0.27659574 0.22100317 -0.3207396 -0.117548 -0.22981559
0.16083743 0.15494876 0.31254 -0.18825601 -0.20333327 -0.13311791 -0.14719485 0.26725593
-0.33759892 -0.18233632 -0.036746822 -0.12784582 -0.07462049 -0.14943546 0.002494983 0.4455795
0.26341116 -0.19016342 0.3033138 -0.054974478 -0.18847474 0.1423819 -0.055335812 0.29515892
0.25676787 0.1089118 -0.25485113 -0.124305464 -0.033164777 0.030906044 0.23616442 -0.22006558
0.065817945 0.08324965 -0.102568716 -0.07627536 0.23835394 0.38111532 0.15313013 -0.18698113
-0.09148197 0.24139422 -0.3670851 0.15157805 0.16563877 -0.34560904 0.054010034 0.23473872
0.19280095 0.29222125 -0.34425 -0.18962975 0.17352077 -0.11195561 0.1282855 0.1570145
-0.24675694 0.028313285 0.02866032 0.36058974 0.14643084 0.10656937 0.13147734 -0.051852785
0.06139325 -0.067568325 0.18219599 -0.10359814 -0.037669767 0.059365362 -0.105017364 -0.17610869
0.2890102 -0.058318812 -0.021990428 -0.19449785 0.2049748 -0.26086903 -0.2568225 0.13737948
0.06417196 -0.24704777 -0.16868797 -0.29141927 -0.012513196 0.05089191 -0.1916051 -0.062495187
0.045147 0.06826941 -0.031583056 -0.19491203 -0.06345907 0.31541932 -0.15990686 0.17769718
-0.08493054 -0.25735793 0.36616462 -0.10380842 -0.18356523 -0.0676398 0.050632484 0.08679558
0.114708945 -0.13450928 0.26706922 -0.22870024 -0.18428953 0.16372949 -0.0968767 -0.0948636
-0.2554551 0.097393 0.1962146 -0.16318962 -0.24451347 0.1568514 -0.18540463 -0.23469862
0.03384409 0.17213875 0.17588787 0.21221747 0.09236068 -0.027891945 -0.13987018 0.0679564
0.0013621064 -0.020903785 0.013286885 -0.22283094 -0.0564386 -0.12059435 0.0036166802 -0.16925508
-0.03632597 0.2306471 0.060780644 -0.25429997 0.022367792 -0.08856181 0.102394775 -0.08497757
-0.18840949 0.15687202 -0.10328702 0.08367098 -0.1548043 0.22437157 -0.13246076 -0.03420101
-0.12686177 -0.068536334 0.109674364 0.011020644 -0.039502036 0.19026574 -0.1353122 -0.107515186
0.20984899 0.12164929 0.17022029 0.011797803 0.031980354 -0.11397028 -0.033832982 -0.00020816049
-0.040609345 0.09594359 0.14791349 -0.081915535 0.14587253 0.1478757 0.21077546 0.22696033
-0.035956625 -0.24218796 0.11526588 0.26501927 0.2965894 -0.21698037 0.07810118 -0.025785781
00000000: 8c99 0bbe b70d 14be b3fc 673e 0d44 ab3d
00000010: de6d 323e 1015 733d 33d8 50be 29dd a33e
00000020: ae3d 05be 320a 9abe 6e8a 943a 743d 883e
00000030: 2db7 c5bc a3fe 8bbd 5eab 1dbd cca8 4dbd
00000040: b75a cb3c 021f 5bbe 8e65 f53d d3f4 a03e
00000050: fdaa 91bd 883c 50be ed6f 863e 0f78 823d
00000060: a363 2c3e 1902 6dbe e7d4 103d 1445 72be
00000070: 8f8d 79bd ab3a 8fbe ab1a 073e aecf bc3c
00000080: 5372 cabc 7831 da3d 59fa 5a3a 6951 45be
00000090: a3fa 903c 39df 023e 6b0c 013e 5ce6 7e3e
000000a0: 4bc1 45be 0cb0 7a3e 2ad8 133e 0fec c13c
000000b0: 3700 43be 6347 4cbd ec3a 23be 60d4 75be
000000c0: 21ba 7fbe e932 c63d 80bf f23d fdb0 693e
000000d0: 4ec5 473e 357b c23d 2782 78be cdea 823e
000000e0: 712b 9b3e 9a67 893e da9f 1d3e 93ba 493d
000000f0: 697b 85be 5067 a33d 858d 22be 58cc 883d
00000100: 774c 86bc 1e54 90bd 4a91 053d f59d 8dbe
00000110: a84e 623e fb37 a4be 01bd f0bd c754 6bbe
00000120: 91b2 243e e3aa 1e3e 3e05 a03e 2fc6 40be
00000130: 9936 50be 1050 08be 3fba 16be c5d5 883e
00000140: c4d9 acbe 5fb6 3abe d683 16bd 04ea 02be
00000150: a1d2 98bd 9c05 19be de82 233b ff22 e43e
00000160: d4dd 863e 33ba 42be f24b 9b3e eb2c 61bd
00000170: 86ff 40be 90cc 113e cea7 62bd 121f 973e
00000180: 1477 833e 260d df3d d97b 82be dd93 febd
00000190: cad7 07bd ac2e fd3c 16d5 713e df58 61be
000001a0: 8fcb 863d cb7e aa3d 8c0f d2bd 4236 9cbd
000001b0: 0e13 743e 8c21 c33e 25ce 1c3e fb77 3fbe
000001c0: e65a bbbd 0c30 773e 94f2 bbbe 4737 1b3e
000001d0: 369d 293e abf3 b0be a039 5d3d 595f 703e
000001e0: 9d6d 453e 069e 953e 8941 b0be 4d2e 42be
000001f0: 6eaf 313e fc48 e5bd 465d 033e 69c8 203e
00000200: daad 7cbe 43f1 e73c 0cc9 ea3c 389f b83e
00000210: f7f1 153e 0b41 da3d ffa1 063e 9663 54bd
00000220: 7d77 7b3d 4361 8abd 9691 3a3e 432b d4bd
00000230: 9d4b 1abd 1829 733d 5813 d7bd d655 34be
00000240: 25f9 933e b5df 6ebd 4525 b4bc 722a 47be
00000250: eae4 513e a090 85be 3d7e 83be 35ad 0c3e
00000260: 976c 833d 17fa 7cbe 8abc 2cbe e834 95be
00000270: 2604 4dbc 0974 503d 2134 44be f4fa 7fbd
00000280: 10ec 383d d5d0 8b3d 3c5d 01bd 0597 47be
00000290: d4f6 81bd a47e a13e a0be 23be 40f6 353e
000002a0: 10f0 adbd 6bc4 83be ee79 bb3e 8299 d4bd
000002b0: 86f8 3bbe bc86 8abd 0264 4f3d e2c1 b13d
000002c0: 86ec ea3d cdbc 09be 4cbd 883e 6530 6abe
000002d0: 65b6 3cbe b4a8 273e 4b67 c6bd d947 c2bd
000002e0: 03cb 82be fb75 c73d 7bec 483e 2e1b 27be
000002f0: bd61 7abe a79d 203e b6da 3dbe d654 70be
00000300: 1aa0 0a3d 2445 303e f31b 343e 894f 593e
00000310: 9927 bd3d a67d e4bc 213a 0fbe ba2c 8b3d
00000320: b588 b23a 6a3e abbc 3cb1 593c cb2d 64be
00000330: 292c 67bd 2cfa f6bd d305 6d3b 3451 2dbe
00000340: 8aca 14bd c12e 6c3e 20f5 783d 9b33 82be
00000350: a93c b73c e55f b5bd 5ab4 d13d b808 aebd
00000360: 6bee 40be 0fa3 203e 2588 d3bd b15b ab3d
00000370: 0585 1ebe a9c1 653e cba3 07be 5c16 0cbd
00000380: 0de8 01be c75c 8cbd f49c e03d ee8f 343c
00000390: e3cc 21bd 06d5 423e 488f 0abe ec30 dcbd
000003a0: a7e2 563e 4323 f93d 3a4e 2e3e 934b 413c
000003b0: d5fd 023d 4069 e9bd 7494 0abd a845 5ab9
000003c0: fc55 26bd 137e c43d a276 173e 55c3 a7bd
000003d0: 9c5f 153e ba6c 173e 86d5 573e 4a68 683e
000003e0: 4147 13bd 1f00 78be 8510 ec3d 9bb0 873e
000003f0: 91da 973e 1a30 5ebe 83f3 9f3d b43c d3bc

bias f4 [10]
-0.054015182 0.062329546 -0.036109753 0.076696716 0.24646558 -0.035190873 0.17469758 -0.072526045
-0.118535206 -0.044234764
00000000: 063f 5dbd 444d 7f3d d2e7 13bd 2b13 9d3d
00000010: 7961 7c3e 4e24 10bd ece3 323e 8988 94bd
00000020: 96c2 f2bd 832f 35bd
